[06:25:32] DeepAR.Train: Loading the datasets...
[06:25:34] DeepAR.Data: train_len: 28029
[06:25:34] DeepAR.Data: building datasets from data/mydata...
[06:25:37] DeepAR.Data: test_len: 28029
[06:25:37] DeepAR.Data: building datasets from data/mydata...
[06:25:37] DeepAR.Train: Loading complete.
[06:25:37] DeepAR.Train: Model: 
Net(
  (embedding): Embedding(370, 20)
  (lstm): LSTM(25, 40, num_layers=3, dropout=0.1)
  (relu): ReLU()
  (distribution_mu): Linear(in_features=120, out_features=1, bias=True)
  (distribution_presigma): Linear(in_features=120, out_features=1, bias=True)
  (distribution_sigma): Softplus(beta=1, threshold=20)
)
[06:25:37] DeepAR.Train: Starting training for 20 epoch(s)
[06:25:37] DeepAR.Train: begin training and evaluation
[06:25:37] DeepAR.Train: Epoch 1/20
[06:28:23] DeepAR.Train: Loading the datasets...
[06:28:51] DeepAR.Data: train_len: 28029
[06:28:51] DeepAR.Data: building datasets from data/mydata...
[06:28:54] DeepAR.Data: test_len: 3115
[06:28:54] DeepAR.Data: building datasets from data/mydata...
[06:28:54] DeepAR.Train: Loading complete.
[06:28:54] DeepAR.Train: Model: 
Net(
  (embedding): Embedding(370, 20)
  (lstm): LSTM(65, 40, num_layers=3, dropout=0.1)
  (relu): ReLU()
  (distribution_mu): Linear(in_features=120, out_features=1, bias=True)
  (distribution_presigma): Linear(in_features=120, out_features=1, bias=True)
  (distribution_sigma): Softplus(beta=1, threshold=20)
)
[06:28:54] DeepAR.Train: Starting training for 20 epoch(s)
[06:28:54] DeepAR.Train: begin training and evaluation
[06:28:54] DeepAR.Train: Epoch 1/20
[06:32:07] DeepAR.Train: Loading the datasets...
[06:32:09] DeepAR.Data: train_len: 28029
[06:32:09] DeepAR.Data: building datasets from data/mydata...
[06:32:09] DeepAR.Data: test_len: 3115
[06:32:09] DeepAR.Data: building datasets from data/mydata...
[06:32:09] DeepAR.Train: Loading complete.
[06:32:09] DeepAR.Train: Model: 
Net(
  (embedding): Embedding(370, 20)
  (lstm): LSTM(64, 40, num_layers=3, dropout=0.1)
  (relu): ReLU()
  (distribution_mu): Linear(in_features=120, out_features=1, bias=True)
  (distribution_presigma): Linear(in_features=120, out_features=1, bias=True)
  (distribution_sigma): Softplus(beta=1, threshold=20)
)
[06:32:09] DeepAR.Train: Starting training for 20 epoch(s)
[06:32:09] DeepAR.Train: begin training and evaluation
[06:32:09] DeepAR.Train: Epoch 1/20
[06:40:25] DeepAR.Train: Loading the datasets...
[06:40:25] DeepAR.Data: train_len: 35518
[06:40:25] DeepAR.Data: building datasets from data/mydata...
[06:40:25] DeepAR.Data: test_len: 3947
[06:40:25] DeepAR.Data: building datasets from data/mydata...
[06:40:25] DeepAR.Train: Loading complete.
[06:40:25] DeepAR.Train: Model: 
Net(
  (embedding): Embedding(370, 20)
  (lstm): LSTM(64, 40, num_layers=3, dropout=0.1)
  (relu): ReLU()
  (distribution_mu): Linear(in_features=120, out_features=1, bias=True)
  (distribution_presigma): Linear(in_features=120, out_features=1, bias=True)
  (distribution_sigma): Softplus(beta=1, threshold=20)
)
[06:40:25] DeepAR.Train: Starting training for 20 epoch(s)
[06:40:25] DeepAR.Train: begin training and evaluation
[06:40:25] DeepAR.Train: Epoch 1/20
[06:40:43] DeepAR.Eval: - Full test metrics: ND: 1.000; RMSE: 7.267; test_loss: 00nan
[06:40:43] DeepAR.Train: train_loss: 0.8132277329762777
[06:40:43] DeepAR.Train: train_loss: 0.8132277329762777
…
[07:13:15] DeepAR.Utils: Checkpoint saved to experiments/test_model/epoch_16.pth.tar
[07:13:15] DeepAR.Utils: Best checkpoint copied to best.pth.tar
[07:13:15] DeepAR.Train: - Found new best ND
[07:13:15] DeepAR.Train: Current Best ND is: 1.00000
[07:13:15] DeepAR.Train: Epoch 18/20
[07:21:15] DeepAR.Train: Loading the datasets...
[07:21:16] DeepAR.Data: train_len: 35518
[07:21:16] DeepAR.Data: building datasets from data/mydata...
[07:21:16] DeepAR.Data: test_len: 3947
[07:21:16] DeepAR.Data: building datasets from data/mydata...
[07:21:16] DeepAR.Train: Loading complete.
[07:21:16] DeepAR.Train: Model: 
Net(
  (embedding): Embedding(370, 20)
  (lstm): LSTM(64, 40, num_layers=3, dropout=0.1)
  (relu): ReLU()
  (distribution_mu): Linear(in_features=120, out_features=1, bias=True)
  (distribution_presigma): Linear(in_features=120, out_features=1, bias=True)
  (distribution_sigma): Softplus(beta=1, threshold=20)
)
[07:21:16] DeepAR.Train: Starting training for 20 epoch(s)
[07:21:16] DeepAR.Train: begin training and evaluation
[07:21:16] DeepAR.Train: Epoch 1/20
[07:48:46] DeepAR.Train: Loading the datasets...
[07:48:47] DeepAR.Data: train_len: 35518
[07:48:47] DeepAR.Data: building datasets from data/mydata...
[07:48:47] DeepAR.Data: test_len: 3947
[07:48:47] DeepAR.Data: building datasets from data/mydata...
[07:48:47] DeepAR.Train: Loading complete.
[07:48:47] DeepAR.Train: Model: 
Net(
  (embedding): Embedding(370, 20)
  (lstm): LSTM(64, 40, num_layers=3, dropout=0.1)
  (relu): ReLU()
  (distribution_mu): Linear(in_features=120, out_features=1, bias=True)
  (distribution_presigma): Linear(in_features=120, out_features=1, bias=True)
  (distribution_sigma): Softplus(beta=1, threshold=20)
)
[07:48:47] DeepAR.Train: Starting training for 20 epoch(s)
[07:48:47] DeepAR.Train: begin training and evaluation
[07:48:47] DeepAR.Train: Epoch 1/20
[07:50:13] DeepAR.Eval: - Full test metrics: ND: 5.916; RMSE: 9.499; test_loss: 0.354
[07:50:13] DeepAR.Train: train_loss: 0.5060956080754598
[07:50:13] DeepAR.Train: train_loss: 0.5060956080754598
…
[08:50:33] DeepAR.Train: train_loss: -2.648296356201172
[08:51:24] DeepAR.Eval: - Full test metrics: ND: 1.266; RMSE: 6.646; test_loss: -2.224
[08:51:24] DeepAR.Utils: Checkpoint saved to experiments/test_model/epoch_19.pth.tar
[08:51:24] DeepAR.Train: Current Best ND is: 0.95474
[09:44:45] DeepAR.Train: Loading the datasets...
[09:44:46] DeepAR.Data: train_len: 35518
[09:44:46] DeepAR.Data: building datasets from data/mydata...
[09:44:46] DeepAR.Data: test_len: 3947
[09:44:46] DeepAR.Data: building datasets from data/mydata...
[09:44:46] DeepAR.Train: Loading complete.
[09:44:46] DeepAR.Train: Model: 
Net(
  (embedding): Embedding(370, 20)
  (lstm): LSTM(44, 40, num_layers=3, dropout=0.1)
  (relu): ReLU()
  (distribution_mu): Linear(in_features=120, out_features=1, bias=True)
  (distribution_presigma): Linear(in_features=120, out_features=1, bias=True)
  (distribution_sigma): Softplus(beta=1, threshold=20)
  (loss_fn): SmoothL1Loss()
)
[09:44:46] DeepAR.Train: Starting training for 20 epoch(s)
[09:45:19] DeepAR.Train: Loading the datasets...
[09:45:19] DeepAR.Data: train_len: 35518
[09:45:19] DeepAR.Data: building datasets from data/mydata...
[09:45:20] DeepAR.Data: test_len: 3947
[09:45:20] DeepAR.Data: building datasets from data/mydata...
[09:45:20] DeepAR.Train: Loading complete.
[09:45:20] DeepAR.Train: Model: 
Net(
  (embedding): Embedding(370, 20)
  (lstm): LSTM(44, 40, num_layers=3, dropout=0.1)
  (relu): ReLU()
  (distribution_mu): Linear(in_features=120, out_features=1, bias=True)
  (distribution_presigma): Linear(in_features=120, out_features=1, bias=True)
  (distribution_sigma): Softplus(beta=1, threshold=20)
  (loss_fn): SmoothL1Loss()
)
[09:45:20] DeepAR.Train: Starting training for 20 epoch(s)
[09:45:20] DeepAR.Train: begin training and evaluation
[09:46:40] DeepAR.Train: Loading the datasets...
[09:46:41] DeepAR.Data: train_len: 35518
[09:46:41] DeepAR.Data: building datasets from data/mydata...
[09:46:41] DeepAR.Data: test_len: 3947
[09:46:41] DeepAR.Data: building datasets from data/mydata...
[09:46:41] DeepAR.Train: Loading complete.
[09:46:41] DeepAR.Train: Model: 
Net(
  (embedding): Embedding(370, 20)
  (lstm): LSTM(44, 40, num_layers=3, dropout=0.1)
  (relu): ReLU()
  (distribution_mu): Linear(in_features=120, out_features=1, bias=True)
  (distribution_presigma): Linear(in_features=120, out_features=1, bias=True)
  (distribution_sigma): Softplus(beta=1, threshold=20)
  (loss_fn): SmoothL1Loss()
)
[09:46:41] DeepAR.Train: Starting training for 20 epoch(s)
[09:46:41] DeepAR.Train: begin training and evaluation
[09:46:41] DeepAR.Train: Epoch 1/20
[09:53:11] DeepAR.Train: Loading the datasets...
[09:53:11] DeepAR.Data: train_len: 35518
[09:53:11] DeepAR.Data: building datasets from data/mydata...
[09:53:11] DeepAR.Data: test_len: 3947
[09:53:11] DeepAR.Data: building datasets from data/mydata...
[09:53:11] DeepAR.Train: Loading complete.
[09:53:11] DeepAR.Train: Model: 
Net(
  (embedding): Embedding(370, 20)
  (lstm): LSTM(44, 40, num_layers=3, dropout=0.1)
  (relu): ReLU()
  (distribution_mu): Linear(in_features=120, out_features=1, bias=True)
  (distribution_presigma): Linear(in_features=120, out_features=1, bias=True)
  (distribution_sigma): Softplus(beta=1, threshold=20)
  (loss_fn): SmoothL1Loss()
)
[09:53:11] DeepAR.Train: Starting training for 20 epoch(s)
[09:53:11] DeepAR.Train: begin training and evaluation
[09:53:11] DeepAR.Train: Epoch 1/20
[09:54:20] DeepAR.Train: Loading the datasets...
[09:54:21] DeepAR.Data: train_len: 35518
[09:54:21] DeepAR.Data: building datasets from data/mydata...
[09:54:21] DeepAR.Data: test_len: 3947
[09:54:21] DeepAR.Data: building datasets from data/mydata...
[09:54:21] DeepAR.Train: Loading complete.
[09:54:21] DeepAR.Train: Model: 
Net(
  (embedding): Embedding(370, 20)
  (lstm): LSTM(44, 40, num_layers=3, dropout=0.1)
  (relu): ReLU()
  (distribution_mu): Linear(in_features=120, out_features=1, bias=True)
  (distribution_presigma): Linear(in_features=120, out_features=1, bias=True)
  (distribution_sigma): Softplus(beta=1, threshold=20)
  (loss_fn): SmoothL1Loss()
)
[09:54:21] DeepAR.Train: Starting training for 20 epoch(s)
[09:54:21] DeepAR.Train: begin training and evaluation
[09:54:21] DeepAR.Train: Epoch 1/20
[10:02:47] DeepAR.Train: Loading the datasets...
[10:02:47] DeepAR.Data: train_len: 35518
[10:02:47] DeepAR.Data: building datasets from data/mydata...
[10:02:47] DeepAR.Data: test_len: 3947
[10:02:47] DeepAR.Data: building datasets from data/mydata...
[10:02:47] DeepAR.Train: Loading complete.
[10:02:47] DeepAR.Train: Model: 
Net(
  (embedding): Embedding(370, 20)
  (lstm): LSTM(44, 40, num_layers=3, dropout=0.1)
  (relu): ReLU()
  (distribution_mu): Linear(in_features=120, out_features=1, bias=True)
  (distribution_presigma): Linear(in_features=120, out_features=1, bias=True)
  (distribution_sigma): Softplus(beta=1, threshold=20)
  (loss_fn): SmoothL1Loss()
)
[10:02:47] DeepAR.Train: Starting training for 20 epoch(s)
[10:02:47] DeepAR.Train: begin training and evaluation
[10:02:47] DeepAR.Train: Epoch 1/20
[10:04:58] DeepAR.Train: Loading the datasets...
[10:04:59] DeepAR.Data: train_len: 35518
[10:04:59] DeepAR.Data: building datasets from data/mydata...
[10:04:59] DeepAR.Data: test_len: 3947
[10:04:59] DeepAR.Data: building datasets from data/mydata...
[10:04:59] DeepAR.Train: Loading complete.
[10:04:59] DeepAR.Train: Model: 
Net(
  (embedding): Embedding(370, 20)
  (lstm): LSTM(44, 40, num_layers=3, dropout=0.1)
  (relu): ReLU()
  (distribution_mu): Linear(in_features=120, out_features=1, bias=True)
  (distribution_presigma): Linear(in_features=120, out_features=1, bias=True)
  (distribution_sigma): Softplus(beta=1, threshold=20)
  (loss_fn): SmoothL1Loss()
)
[10:04:59] DeepAR.Train: Starting training for 20 epoch(s)
[10:04:59] DeepAR.Train: begin training and evaluation
[10:04:59] DeepAR.Train: Epoch 1/20
[10:05:25] DeepAR.Train: Loading the datasets...
[10:05:25] DeepAR.Data: train_len: 35518
[10:05:25] DeepAR.Data: building datasets from data/mydata...
[10:05:26] DeepAR.Data: test_len: 3947
[10:05:26] DeepAR.Data: building datasets from data/mydata...
[10:05:26] DeepAR.Train: Loading complete.
[10:05:26] DeepAR.Train: Model: 
Net(
  (embedding): Embedding(370, 20)
  (lstm): LSTM(44, 40, num_layers=3, dropout=0.1)
  (relu): ReLU()
  (distribution_mu): Linear(in_features=120, out_features=1, bias=True)
  (distribution_presigma): Linear(in_features=120, out_features=1, bias=True)
  (distribution_sigma): Softplus(beta=1, threshold=20)
  (loss_fn): SmoothL1Loss()
)
[10:05:26] DeepAR.Train: Starting training for 20 epoch(s)
[10:05:26] DeepAR.Train: begin training and evaluation
[10:05:26] DeepAR.Train: Epoch 1/20
[10:06:01] DeepAR.Train: Loading the datasets...
[10:06:02] DeepAR.Data: train_len: 35518
[10:06:02] DeepAR.Data: building datasets from data/mydata...
[10:06:02] DeepAR.Data: test_len: 3947
[10:06:02] DeepAR.Data: building datasets from data/mydata...
[10:06:02] DeepAR.Train: Loading complete.
[10:06:02] DeepAR.Train: Model: 
Net(
  (embedding): Embedding(370, 20)
  (lstm): LSTM(44, 40, num_layers=3, dropout=0.1)
  (relu): ReLU()
  (distribution_mu): Linear(in_features=120, out_features=1, bias=True)
  (distribution_presigma): Linear(in_features=120, out_features=1, bias=True)
  (distribution_sigma): Softplus(beta=1, threshold=20)
  (loss_fn): SmoothL1Loss()
)
[10:06:02] DeepAR.Train: Starting training for 20 epoch(s)
[10:06:02] DeepAR.Train: begin training and evaluation
[10:06:02] DeepAR.Train: Epoch 1/20
[10:06:43] DeepAR.Train: Loading the datasets...
[10:06:43] DeepAR.Data: train_len: 35518
[10:06:43] DeepAR.Data: building datasets from data/mydata...
[10:06:43] DeepAR.Data: test_len: 3947
[10:06:43] DeepAR.Data: building datasets from data/mydata...
[10:06:43] DeepAR.Train: Loading complete.
[10:06:43] DeepAR.Train: Model: 
Net(
  (embedding): Embedding(370, 20)
  (lstm): LSTM(44, 40, num_layers=3, dropout=0.1)
  (relu): ReLU()
  (distribution_mu): Linear(in_features=120, out_features=1, bias=True)
  (distribution_presigma): Linear(in_features=120, out_features=1, bias=True)
  (distribution_sigma): Softplus(beta=1, threshold=20)
  (loss_fn): SmoothL1Loss()
)
[10:06:43] DeepAR.Train: Starting training for 20 epoch(s)
[10:06:43] DeepAR.Train: begin training and evaluation
[10:06:43] DeepAR.Train: Epoch 1/20
[10:11:52] DeepAR.Train: Loading the datasets...
[10:11:52] DeepAR.Data: train_len: 35518
[10:11:52] DeepAR.Data: building datasets from data/mydata...
[10:11:52] DeepAR.Data: test_len: 3947
[10:11:52] DeepAR.Data: building datasets from data/mydata...
[10:11:52] DeepAR.Train: Loading complete.
[10:11:52] DeepAR.Train: Model: 
Net(
  (embedding): Embedding(370, 20)
  (lstm): LSTM(44, 40, num_layers=3, dropout=0.1)
  (relu): ReLU()
  (distribution_mu): Linear(in_features=120, out_features=1, bias=True)
  (distribution_presigma): Linear(in_features=120, out_features=1, bias=True)
  (distribution_sigma): Softplus(beta=1, threshold=20)
  (loss_fn): SmoothL1Loss()
)
[10:11:52] DeepAR.Train: Starting training for 20 epoch(s)
[10:11:52] DeepAR.Train: begin training and evaluation
[10:11:52] DeepAR.Train: Epoch 1/20
[10:14:37] DeepAR.Train: Loading the datasets...
[10:14:38] DeepAR.Data: train_len: 35518
[10:14:38] DeepAR.Data: building datasets from data/mydata...
[10:14:38] DeepAR.Data: test_len: 3947
[10:14:38] DeepAR.Data: building datasets from data/mydata...
[10:14:38] DeepAR.Train: Loading complete.
[10:14:38] DeepAR.Train: Model: 
Net(
  (embedding): Embedding(370, 20)
  (lstm): LSTM(44, 40, num_layers=3, dropout=0.1)
  (relu): ReLU()
  (distribution_mu): Linear(in_features=120, out_features=1, bias=True)
  (distribution_presigma): Linear(in_features=120, out_features=1, bias=True)
  (distribution_sigma): Softplus(beta=1, threshold=20)
  (loss_fn): SmoothL1Loss()
)
[10:14:38] DeepAR.Train: Starting training for 20 epoch(s)
[10:14:38] DeepAR.Train: begin training and evaluation
[10:14:38] DeepAR.Train: Epoch 1/20
[10:16:41] DeepAR.Train: Loading the datasets...
[10:16:42] DeepAR.Data: train_len: 35518
[10:16:42] DeepAR.Data: building datasets from data/mydata...
[10:16:42] DeepAR.Data: test_len: 3947
[10:16:42] DeepAR.Data: building datasets from data/mydata...
[10:16:42] DeepAR.Train: Loading complete.
[10:16:42] DeepAR.Train: Model: 
Net(
  (embedding): Embedding(370, 20)
  (lstm): LSTM(44, 40, num_layers=3, dropout=0.1)
  (relu): ReLU()
  (distribution_mu): Linear(in_features=120, out_features=1, bias=True)
  (distribution_presigma): Linear(in_features=120, out_features=1, bias=True)
  (distribution_sigma): Softplus(beta=1, threshold=20)
  (loss_fn): SmoothL1Loss()
)
[10:16:42] DeepAR.Train: Starting training for 20 epoch(s)
[10:16:42] DeepAR.Train: begin training and evaluation
[10:16:42] DeepAR.Train: Epoch 1/20
[10:17:23] DeepAR.Train: Loading the datasets...
[10:17:24] DeepAR.Data: train_len: 35518
[10:17:24] DeepAR.Data: building datasets from data/mydata...
[10:17:24] DeepAR.Data: test_len: 3947
[10:17:24] DeepAR.Data: building datasets from data/mydata...
[10:17:24] DeepAR.Train: Loading complete.
[10:17:24] DeepAR.Train: Model: 
Net(
  (embedding): Embedding(370, 20)
  (lstm): LSTM(44, 40, num_layers=3, dropout=0.1)
  (relu): ReLU()
  (distribution_mu): Linear(in_features=120, out_features=1, bias=True)
  (distribution_presigma): Linear(in_features=120, out_features=1, bias=True)
  (distribution_sigma): Softplus(beta=1, threshold=20)
  (loss_fn): SmoothL1Loss()
)
[10:17:24] DeepAR.Train: Starting training for 20 epoch(s)
[10:17:24] DeepAR.Train: begin training and evaluation
[10:17:24] DeepAR.Train: Epoch 1/20
[10:18:22] DeepAR.Train: Loading the datasets...
[10:18:22] DeepAR.Data: train_len: 35518
[10:18:22] DeepAR.Data: building datasets from data/mydata...
[10:18:22] DeepAR.Data: test_len: 3947
[10:18:22] DeepAR.Data: building datasets from data/mydata...
[10:18:22] DeepAR.Train: Loading complete.
[10:18:22] DeepAR.Train: Model: 
Net(
  (embedding): Embedding(370, 20)
  (lstm): LSTM(44, 40, num_layers=3, dropout=0.1)
  (relu): ReLU()
  (distribution_mu): Linear(in_features=120, out_features=1, bias=True)
  (distribution_presigma): Linear(in_features=120, out_features=1, bias=True)
  (distribution_sigma): Softplus(beta=1, threshold=20)
  (loss_fn): SmoothL1Loss()
)
[10:18:22] DeepAR.Train: Starting training for 20 epoch(s)
[10:18:22] DeepAR.Train: begin training and evaluation
[10:18:22] DeepAR.Train: Epoch 1/20
[10:18:35] DeepAR.Eval: - Full test metrics: loss: 0.293; R2: -0.800
[10:18:35] DeepAR.Train: train_loss: 0.2849042018254598
…
[10:28:08] DeepAR.Train: train_loss: 0.3007079561551412
[23:48:19] DeepAR.Train: Loading the datasets...
[23:48:28] DeepAR.Data: train_len: 35518
[23:48:28] DeepAR.Data: building datasets from data/deepar_data/train_data.npy...
[23:48:44] DeepAR.Train: Loading the datasets...
[23:48:54] DeepAR.Data: train_len: 35518
[23:48:54] DeepAR.Data: building datasets from data/deepar_data/train_data.npy...
[23:48:58] DeepAR.Data: test_len: 3947
[23:48:58] DeepAR.Data: building datasets from data/deepar_data/test_data.npy...
[23:48:58] DeepAR.Train: Loading complete.
[23:48:58] DeepAR.Train: Model: 
Net(
  (proj): Linear(in_features=44, out_features=45, bias=True)
  (lstm): LSTM(45, 256, num_layers=2)
  (relu): ReLU()
  (linear): Linear(in_features=256, out_features=256, bias=True)
  (predict): Linear(in_features=256, out_features=1, bias=True)
  (loss_fn): SmoothL1Loss()
)
[23:49:22] DeepAR.Train: Loading the datasets...
[23:49:32] DeepAR.Data: train_len: 35518
[23:49:32] DeepAR.Data: building datasets from data/deepar_data/train_data.npy...
[23:49:33] DeepAR.Data: test_len: 3947
[23:49:33] DeepAR.Data: building datasets from data/deepar_data/test_data.npy...
[23:49:33] DeepAR.Train: Loading complete.
[23:49:33] DeepAR.Train: Model: 
Net(
  (proj): Linear(in_features=44, out_features=45, bias=True)
  (lstm): LSTM(45, 256, num_layers=2)
  (relu): ReLU()
  (linear): Linear(in_features=256, out_features=256, bias=True)
  (predict): Linear(in_features=256, out_features=1, bias=True)
  (loss_fn): SmoothL1Loss()
)
[23:49:33] DeepAR.Train: Starting training for 192 epoch(s)
[23:49:33] DeepAR.Train: begin training and evaluation
[23:49:54] DeepAR.Train: Epoch 1/192
[23:52:14] DeepAR.Train: Loading the datasets...
[23:52:28] DeepAR.Data: train_len: 35518
[23:52:28] DeepAR.Data: building datasets from data/deepar_data/train_data.npy...
[23:52:31] DeepAR.Data: test_len: 3947
[23:52:31] DeepAR.Data: building datasets from data/deepar_data/test_data.npy...
[23:52:31] DeepAR.Train: Loading complete.
[23:52:31] DeepAR.Train: Model: 
Net(
  (proj): Linear(in_features=44, out_features=45, bias=True)
  (lstm): LSTM(45, 256, num_layers=2)
  (relu): ReLU()
  (linear): Linear(in_features=256, out_features=256, bias=True)
  (predict): Linear(in_features=256, out_features=1, bias=True)
  (loss_fn): SmoothL1Loss()
)
[23:52:31] DeepAR.Train: Starting training for 192 epoch(s)
[23:52:31] DeepAR.Train: begin training and evaluation
[23:52:31] DeepAR.Train: Epoch 1/192
[23:53:43] DeepAR.Train: Loading the datasets...
[23:54:07] DeepAR.Data: train_len: 35518
[23:54:07] DeepAR.Data: building datasets from data/deepar_data/train_data.npy...
[23:54:07] DeepAR.Data: test_len: 3947
[23:54:07] DeepAR.Data: building datasets from data/deepar_data/test_data.npy...
[23:54:07] DeepAR.Train: Loading complete.
[23:54:07] DeepAR.Train: Model: 
Net(
  (proj): Linear(in_features=44, out_features=45, bias=True)
  (lstm): LSTM(45, 256, num_layers=2)
  (relu): ReLU()
  (linear): Linear(in_features=512, out_features=256, bias=True)
  (predict): Linear(in_features=256, out_features=1, bias=True)
  (loss_fn): SmoothL1Loss()
)
[23:54:07] DeepAR.Train: Starting training for 192 epoch(s)
[23:54:07] DeepAR.Train: begin training and evaluation
[23:54:07] DeepAR.Train: Epoch 1/192
[23:57:01] DeepAR.Train: Loading the datasets...
[23:57:20] DeepAR.Data: train_len: 35518
[23:57:20] DeepAR.Data: building datasets from data/deepar_data/train_data.npy...
[23:57:21] DeepAR.Data: test_len: 3947
[23:57:21] DeepAR.Data: building datasets from data/deepar_data/test_data.npy...
[23:57:21] DeepAR.Train: Loading complete.
[23:57:21] DeepAR.Train: Model: 
Net(
  (proj): Linear(in_features=44, out_features=45, bias=True)
  (lstm): LSTM(45, 256, num_layers=2)
  (relu): ReLU()
  (linear): Linear(in_features=512, out_features=256, bias=True)
  (predict): Linear(in_features=256, out_features=1, bias=True)
  (loss_fn): SmoothL1Loss()
)
[23:57:21] DeepAR.Train: Starting training for 192 epoch(s)
[23:57:21] DeepAR.Train: begin training and evaluation
[23:57:21] DeepAR.Train: Epoch 1/192
[23:57:45] DeepAR.Train: Loading the datasets...
[23:57:52] DeepAR.Data: train_len: 35518
[23:57:52] DeepAR.Data: building datasets from data/deepar_data/train_data.npy...
[23:57:53] DeepAR.Data: test_len: 3947
[23:57:53] DeepAR.Data: building datasets from data/deepar_data/test_data.npy...
[23:57:53] DeepAR.Train: Loading complete.
[23:57:53] DeepAR.Train: Model: 
Net(
  (proj): Linear(in_features=44, out_features=45, bias=True)
  (lstm): LSTM(45, 256, num_layers=2)
  (relu): ReLU()
  (linear): Linear(in_features=512, out_features=256, bias=True)
  (predict): Linear(in_features=256, out_features=1, bias=True)
  (loss_fn): SmoothL1Loss()
)
[23:57:53] DeepAR.Train: Starting training for 192 epoch(s)
[23:57:53] DeepAR.Train: begin training and evaluation
[23:57:53] DeepAR.Train: Epoch 1/192
[23:58:35] DeepAR.Train: Loading the datasets...
[23:58:42] DeepAR.Data: train_len: 35518
[23:58:42] DeepAR.Data: building datasets from data/deepar_data/train_data.npy...
[23:58:43] DeepAR.Data: test_len: 3947
[23:58:43] DeepAR.Data: building datasets from data/deepar_data/test_data.npy...
[23:58:43] DeepAR.Train: Loading complete.
[23:58:43] DeepAR.Train: Model: 
Net(
  (proj): Linear(in_features=44, out_features=45, bias=True)
  (lstm): LSTM(45, 256, num_layers=2)
  (relu): ReLU()
  (linear): Linear(in_features=512, out_features=256, bias=True)
  (predict): Linear(in_features=256, out_features=1, bias=True)
  (loss_fn): SmoothL1Loss()
)
[23:58:43] DeepAR.Train: Starting training for 192 epoch(s)
[23:58:43] DeepAR.Train: begin training and evaluation
[23:58:43] DeepAR.Train: Epoch 1/192
[23:59:10] DeepAR.Train: Loading the datasets...
[23:59:19] DeepAR.Data: train_len: 35518
[23:59:19] DeepAR.Data: building datasets from data/deepar_data/train_data.npy...
[23:59:20] DeepAR.Data: test_len: 3947
[23:59:20] DeepAR.Data: building datasets from data/deepar_data/test_data.npy...
[23:59:20] DeepAR.Train: Loading complete.
[23:59:20] DeepAR.Train: Model: 
Net(
  (proj): Linear(in_features=44, out_features=45, bias=True)
  (lstm): LSTM(45, 256, num_layers=2)
  (relu): ReLU()
  (linear): Linear(in_features=512, out_features=256, bias=True)
  (predict): Linear(in_features=256, out_features=1, bias=True)
  (loss_fn): SmoothL1Loss()
)
[23:59:20] DeepAR.Train: Starting training for 192 epoch(s)
[23:59:20] DeepAR.Train: begin training and evaluation
[23:59:20] DeepAR.Train: Epoch 1/192
[00:00:57] DeepAR.Eval: - Full test metrics: loss: 231.605; R2: -321458.031
[00:04:27] DeepAR.Eval: - Full test metrics: loss: 231.605; R2: -660997.688
[00:04:27] DeepAR.Train: train_loss: 0.0020683323964476585
[00:04:27] DeepAR.Train: train_loss: 0.0020683323964476585
[00:10:31] DeepAR.Train: Loading the datasets...
[00:11:04] DeepAR.Data: train_len: 35518
[00:11:04] DeepAR.Data: building datasets from data/deepar_data/train_data.npy...
[00:11:05] DeepAR.Data: test_len: 3947
[00:11:05] DeepAR.Data: building datasets from data/deepar_data/test_data.npy...
[00:11:05] DeepAR.Train: Loading complete.
[00:11:05] DeepAR.Train: Model: 
Net(
  (proj): Linear(in_features=44, out_features=45, bias=True)
  (lstm): LSTM(45, 256, num_layers=2)
  (relu): ReLU()
  (linear): Linear(in_features=512, out_features=256, bias=True)
  (predict): Linear(in_features=256, out_features=1, bias=True)
  (loss_fn): SmoothL1Loss()
)
[00:11:05] DeepAR.Train: Starting training for 192 epoch(s)
[00:11:05] DeepAR.Train: begin training and evaluation
[00:11:05] DeepAR.Train: Epoch 1/192
[00:20:46] DeepAR.Train: Loading the datasets...
[00:20:46] DeepAR.Data: train_len: 172
[00:20:46] DeepAR.Data: building datasets from data/deepar_data/train_data.npy...
[00:20:46] DeepAR.Data: test_len: 20
[00:20:46] DeepAR.Data: building datasets from data/deepar_data/test_data.npy...
[00:20:46] DeepAR.Train: Loading complete.
[00:20:46] DeepAR.Train: Model: 
Net(
  (proj): Linear(in_features=44, out_features=45, bias=True)
  (lstm): LSTM(45, 256, num_layers=2)
  (relu): ReLU()
  (linear): Linear(in_features=512, out_features=256, bias=True)
  (predict): Linear(in_features=256, out_features=1, bias=True)
  (loss_fn): MSELoss()
)
[00:20:46] DeepAR.Train: Starting training for 192 epoch(s)
[00:20:46] DeepAR.Train: begin training and evaluation
[00:20:46] DeepAR.Train: Epoch 1/192
[00:22:26] DeepAR.Train: Loading the datasets...
[00:22:26] DeepAR.Data: train_len: 172
[00:22:26] DeepAR.Data: building datasets from data/deepar_data/train_data.npy...
[00:22:26] DeepAR.Data: test_len: 20
[00:22:26] DeepAR.Data: building datasets from data/deepar_data/test_data.npy...
[00:22:26] DeepAR.Train: Loading complete.
[00:22:26] DeepAR.Train: Model: 
Net(
  (proj): Linear(in_features=44, out_features=45, bias=True)
  (lstm): LSTM(45, 256, num_layers=2)
  (relu): ReLU()
  (linear): Linear(in_features=512, out_features=256, bias=True)
  (predict): Linear(in_features=256, out_features=1, bias=True)
  (loss_fn): MSELoss()
)
[00:22:26] DeepAR.Train: Starting training for 192 epoch(s)
[00:22:26] DeepAR.Train: begin training and evaluation
[00:22:26] DeepAR.Train: Epoch 1/192
[00:23:00] DeepAR.Train: Loading the datasets...
[00:23:00] DeepAR.Data: train_len: 172
[00:23:00] DeepAR.Data: building datasets from data/deepar_data/train_data.npy...
[00:23:00] DeepAR.Data: test_len: 20
[00:23:00] DeepAR.Data: building datasets from data/deepar_data/test_data.npy...
[00:23:00] DeepAR.Train: Loading complete.
[00:23:00] DeepAR.Train: Model: 
Net(
  (proj): Linear(in_features=44, out_features=45, bias=True)
  (lstm): LSTM(45, 256, num_layers=2)
  (relu): ReLU()
  (linear): Linear(in_features=512, out_features=256, bias=True)
  (predict): Linear(in_features=256, out_features=1, bias=True)
  (loss_fn): MSELoss()
)
[00:23:00] DeepAR.Train: Starting training for 192 epoch(s)
[00:23:00] DeepAR.Train: begin training and evaluation
[00:23:00] DeepAR.Train: Epoch 1/192
[00:28:58] DeepAR.Train: Loading the datasets...
[00:29:42] DeepAR.Data: train_len: 35518
[00:29:42] DeepAR.Data: building datasets from data/deepar_data/train_data.npy...
[00:29:45] DeepAR.Data: test_len: 3947
[00:29:45] DeepAR.Data: building datasets from data/deepar_data/test_data.npy...
[00:29:45] DeepAR.Train: Loading complete.
[00:29:45] DeepAR.Train: Model: 
Net(
  (proj): Linear(in_features=44, out_features=45, bias=True)
  (lstm): LSTM(45, 256, num_layers=2)
  (relu): ReLU()
  (linear): Linear(in_features=512, out_features=256, bias=True)
  (predict): Linear(in_features=256, out_features=1, bias=True)
  (loss_fn): MSELoss()
)
[00:29:45] DeepAR.Train: Starting training for 192 epoch(s)
[00:29:45] DeepAR.Train: begin training and evaluation
[00:29:45] DeepAR.Train: Epoch 1/192
